…
Average actions of items: 59.45303210463734
The number of inters: 100000
The sparsity of the dataset: 93.70575143257098%
Remain Fields: ['user_id', 'item_id', 'rating', 'timestamp']
Tue 06 Feb 2024 13:22:03 INFO  [Training]: train_batch_size = [2048] train_neg_sample_args: [{'distribution': 'uniform', 'sample_num': 1, 'alpha': 1.0, 'dynamic': False, 'candidate_num': 0}]
Tue 06 Feb 2024 13:22:03 INFO  [Evaluation]: eval_batch_size = [4096] eval_args: [{'split': {'RS': [0.8, 0.1, 0.1]}, 'order': 'RO', 'group_by': 'user', 'mode': {'valid': 'full', 'test': 'full'}}]
Tue 06 Feb 2024 13:22:03 INFO  NNCF(
  (user_embedding): Embedding(944, 64)
  (item_embedding): Embedding(1683, 64)
  (user_neigh_embedding): Embedding(1683, 32)
  (item_neigh_embedding): Embedding(944, 32)
  (user_conv): Sequential(
    (0): Conv1d(32, 128, kernel_size=(5,), stride=(1,))
    (1): MaxPool1d(kernel_size=5, stride=5, padding=0, dilation=1, ceil_mode=False)
    (2): ReLU()
  )
  (item_conv): Sequential(
    (0): Conv1d(32, 128, kernel_size=(5,), stride=(1,))
    (1): MaxPool1d(kernel_size=5, stride=5, padding=0, dilation=1, ceil_mode=False)
    (2): ReLU()
  )
  (mlp_layers): MLPLayers(
    (mlp_layers): Sequential(
      (0): Dropout(p=0.5, inplace=False)
      (1): Linear(in_features=832, out_features=128, bias=True)
      (2): ReLU()
      (3): Dropout(p=0.5, inplace=False)
      (4): Linear(in_features=128, out_features=64, bias=True)
      (5): ReLU()
      (6): Dropout(p=0.5, inplace=False)
      (7): Linear(in_features=64, out_features=32, bias=True)
      (8): ReLU()
      (9): Dropout(p=0.5, inplace=False)
      (10): Linear(in_features=32, out_features=16, bias=True)
      (11): ReLU()
    )
  )
  (out_layer): Linear(in_features=16, out_features=1, bias=True)
  (dropout_layer): Dropout(p=0.5, inplace=False)
  (loss): BCEWithLogitsLoss()
)
Trainable parameters: 410913
Tue 06 Feb 2024 13:22:04 INFO  FLOPs: 774032.0
Tue 06 Feb 2024 13:22:18 INFO  epoch 0 training [time: 12.82s, train loss: 50.2941]
Tue 06 Feb 2024 13:22:56 INFO  epoch 0 evaluating [time: 38.35s, valid_score: 0.089900]
Tue 06 Feb 2024 13:22:56 INFO  valid result: 
…
